…
2022-08-02 14:52:12.969694: W tensorflow/core/common_runtime/gpu/gpu_device.cc:1850] Cannot dlopen some GPU libraries. Please make sure the missing libraries mentioned above are installed properly if you would like to use GPU. Follow the guide at https://www.tensorflow.org/install/gpu for how to download and setup the required libraries for your platform.
Skipping registering GPU devices...
[]
Time needed for importing libraries:  27.69189953804016
4
Model: "model_1"
__________________________________________________________________________________________________
 Layer (type)                   Output Shape         Param #     Connected to                     
==================================================================================================
 sequence (InputLayer)          [(None, 1310720, 4)  0           []                               
                                ]                                                                 
                                                                                                  
 stochastic_reverse_complement   ((None, 1310720, 4)  0          ['sequence[0][0]']               
 (StochasticReverseComplement)  , ())                                                             
                                                                                                  
 stochastic_shift (StochasticSh  (None, 1310720, 4)  0           ['stochastic_reverse_complement[0
 ift)                                                            ][0]']                           
                                                                                                  
 re_lu (ReLU)                   (None, 1310720, 4)   0           ['stochastic_shift[0][0]']       
                                                                                                  
 conv1d (Conv1D)                (None, 1310720, 128  7680        ['re_lu[0][0]']                  
                                )                                                                 
                                                                                                  
 batch_normalization (BatchNorm  (None, 1310720, 128  512        ['conv1d[0][0]']                 
 alization)                     )                                                                 
                                                                                                  
 max_pooling1d (MaxPooling1D)   (None, 655360, 128)  0           ['batch_normalization[0][0]']    
                                                                                                  
 re_lu_1 (ReLU)                 (None, 655360, 128)  0           ['max_pooling1d[0][0]']          
                                                                                                  
 conv1d_1 (Conv1D)              (None, 655360, 128)  81920       ['re_lu_1[0][0]']                
                                                                                                  
 batch_normalization_1 (BatchNo  (None, 655360, 128)  512        ['conv1d_1[0][0]']               
 rmalization)                                                                                     
                                                                                                  
 max_pooling1d_1 (MaxPooling1D)  (None, 327680, 128)  0          ['batch_normalization_1[0][0]']  
                                                                                                  
 re_lu_2 (ReLU)                 (None, 327680, 128)  0           ['max_pooling1d_1[0][0]']        
                                                                                                  
 conv1d_2 (Conv1D)              (None, 327680, 128)  81920       ['re_lu_2[0][0]']                
                                                                                                  
 batch_normalization_2 (BatchNo  (None, 327680, 128)  512        ['conv1d_2[0][0]']               
 rmalization)                                                                                     
                                                                                                  
 max_pooling1d_2 (MaxPooling1D)  (None, 163840, 128)  0          ['batch_normalization_2[0][0]']  
                                                                                                  
 re_lu_3 (ReLU)                 (None, 163840, 128)  0           ['max_pooling1d_2[0][0]']        
                                                                                                  
 conv1d_3 (Conv1D)              (None, 163840, 128)  81920       ['re_lu_3[0][0]']                
                                                                                                  
 batch_normalization_3 (BatchNo  (None, 163840, 128)  512        ['conv1d_3[0][0]']               
 rmalization)                                                                                     
                                                                                                  
 max_pooling1d_3 (MaxPooling1D)  (None, 81920, 128)  0           ['batch_normalization_3[0][0]']  
                                                                                                  
 re_lu_4 (ReLU)                 (None, 81920, 128)   0           ['max_pooling1d_3[0][0]']        
                                                                                                  
 conv1d_4 (Conv1D)              (None, 81920, 128)   81920       ['re_lu_4[0][0]']                
                                                                                                  
 batch_normalization_4 (BatchNo  (None, 81920, 128)  512         ['conv1d_4[0][0]']               
 rmalization)                                                                                     
                                                                                                  
 max_pooling1d_4 (MaxPooling1D)  (None, 40960, 128)  0           ['batch_normalization_4[0][0]']  
                                                                                                  
 re_lu_5 (ReLU)                 (None, 40960, 128)   0           ['max_pooling1d_4[0][0]']        
                                                                                                  
 conv1d_5 (Conv1D)              (None, 40960, 128)   81920       ['re_lu_5[0][0]']                
                                                                                                  
 batch_normalization_5 (BatchNo  (None, 40960, 128)  512         ['conv1d_5[0][0]']               
 rmalization)                                                                                     
                                                                                                  
 max_pooling1d_5 (MaxPooling1D)  (None, 20480, 128)  0           ['batch_normalization_5[0][0]']  
                                                                                                  
 re_lu_6 (ReLU)                 (None, 20480, 128)   0           ['max_pooling1d_5[0][0]']        
                                                                                                  
 conv1d_6 (Conv1D)              (None, 20480, 128)   81920       ['re_lu_6[0][0]']                
                                                                                                  
 batch_normalization_6 (BatchNo  (None, 20480, 128)  512         ['conv1d_6[0][0]']               
 rmalization)                                                                                     
                                                                                                  
 max_pooling1d_6 (MaxPooling1D)  (None, 10240, 128)  0           ['batch_normalization_6[0][0]']  
                                                                                                  
 re_lu_7 (ReLU)                 (None, 10240, 128)   0           ['max_pooling1d_6[0][0]']        
                                                                                                  
 conv1d_7 (Conv1D)              (None, 10240, 128)   81920       ['re_lu_7[0][0]']                
                                                                                                  
 batch_normalization_7 (BatchNo  (None, 10240, 128)  512         ['conv1d_7[0][0]']               
 rmalization)                                                                                     
                                                                                                  
 max_pooling1d_7 (MaxPooling1D)  (None, 5120, 128)   0           ['batch_normalization_7[0][0]']  
                                                                                                  
 re_lu_8 (ReLU)                 (None, 5120, 128)    0           ['max_pooling1d_7[0][0]']        
                                                                                                  
 conv1d_8 (Conv1D)              (None, 5120, 128)    81920       ['re_lu_8[0][0]']                
                                                                                                  
 batch_normalization_8 (BatchNo  (None, 5120, 128)   512         ['conv1d_8[0][0]']               
 rmalization)                                                                                     
                                                                                                  
 max_pooling1d_8 (MaxPooling1D)  (None, 2560, 128)   0           ['batch_normalization_8[0][0]']  
                                                                                                  
 re_lu_9 (ReLU)                 (None, 2560, 128)    0           ['max_pooling1d_8[0][0]']        
                                                                                                  
 conv1d_9 (Conv1D)              (None, 2560, 128)    81920       ['re_lu_9[0][0]']                
                                                                                                  
 batch_normalization_9 (BatchNo  (None, 2560, 128)   512         ['conv1d_9[0][0]']               
 rmalization)                                                                                     
                                                                                                  
 max_pooling1d_9 (MaxPooling1D)  (None, 1280, 128)   0           ['batch_normalization_9[0][0]']  
                                                                                                  
 re_lu_10 (ReLU)                (None, 1280, 128)    0           ['max_pooling1d_9[0][0]']        
                                                                                                  
 conv1d_10 (Conv1D)             (None, 1280, 128)    81920       ['re_lu_10[0][0]']               
                                                                                                  
 batch_normalization_10 (BatchN  (None, 1280, 128)   512         ['conv1d_10[0][0]']              
 ormalization)                                                                                    
                                                                                                  
 max_pooling1d_10 (MaxPooling1D  (None, 640, 128)    0           ['batch_normalization_10[0][0]'] 
 )                                                                                                
                                                                                                  
 re_lu_11 (ReLU)                (None, 640, 128)     0           ['max_pooling1d_10[0][0]']       
                                                                                                  
 conv1d_11 (Conv1D)             (None, 640, 64)      24576       ['re_lu_11[0][0]']               
                                                                                                  
 batch_normalization_11 (BatchN  (None, 640, 64)     256         ['conv1d_11[0][0]']              
 ormalization)                                                                                    
                                                                                                  
 re_lu_12 (ReLU)                (None, 640, 64)      0           ['batch_normalization_11[0][0]'] 
                                                                                                  
 conv1d_12 (Conv1D)             (None, 640, 128)     8192        ['re_lu_12[0][0]']               
                                                                                                  
 batch_normalization_12 (BatchN  (None, 640, 128)    512         ['conv1d_12[0][0]']              
 ormalization)                                                                                    
                                                                                                  
 dropout (Dropout)              (None, 640, 128)     0           ['batch_normalization_12[0][0]'] 
                                                                                                  
 add (Add)                      (None, 640, 128)     0           ['max_pooling1d_10[0][0]',       
                                                                  'dropout[0][0]']                
                                                                                                  
 re_lu_13 (ReLU)                (None, 640, 128)     0           ['add[0][0]']                    
                                                                                                  
 conv1d_13 (Conv1D)             (None, 640, 64)      24576       ['re_lu_13[0][0]']               
                                                                                                  
 batch_normalization_13 (BatchN  (None, 640, 64)     256         ['conv1d_13[0][0]']              
 ormalization)                                                                                    
                                                                                                  
 re_lu_14 (ReLU)                (None, 640, 64)      0           ['batch_normalization_13[0][0]'] 
                                                                                                  
 conv1d_14 (Conv1D)             (None, 640, 128)     8192        ['re_lu_14[0][0]']               
                                                                                                  
 batch_normalization_14 (BatchN  (None, 640, 128)    512         ['conv1d_14[0][0]']              
 ormalization)                                                                                    
                                                                                                  
 dropout_1 (Dropout)            (None, 640, 128)     0           ['batch_normalization_14[0][0]'] 
                                                                                                  
 add_1 (Add)                    (None, 640, 128)     0           ['add[0][0]',                    
                                                                  'dropout_1[0][0]']              
                                                                                                  
 re_lu_15 (ReLU)                (None, 640, 128)     0           ['add_1[0][0]']                  
                                                                                                  
 conv1d_15 (Conv1D)             (None, 640, 64)      24576       ['re_lu_15[0][0]']               
                                                                                                  
 batch_normalization_15 (BatchN  (None, 640, 64)     256         ['conv1d_15[0][0]']              
 ormalization)                                                                                    
                                                                                                  
 re_lu_16 (ReLU)                (None, 640, 64)      0           ['batch_normalization_15[0][0]'] 
                                                                                                  
 conv1d_16 (Conv1D)             (None, 640, 128)     8192        ['re_lu_16[0][0]']               
                                                                                                  
 batch_normalization_16 (BatchN  (None, 640, 128)    512         ['conv1d_16[0][0]']              
 ormalization)                                                                                    
                                                                                                  
 dropout_2 (Dropout)            (None, 640, 128)     0           ['batch_normalization_16[0][0]'] 
                                                                                                  
 add_2 (Add)                    (None, 640, 128)     0           ['add_1[0][0]',                  
                                                                  'dropout_2[0][0]']              
                                                                                                  
 re_lu_17 (ReLU)                (None, 640, 128)     0           ['add_2[0][0]']                  
                                                                                                  
 conv1d_17 (Conv1D)             (None, 640, 64)      24576       ['re_lu_17[0][0]']               
                                                                                                  
 batch_normalization_17 (BatchN  (None, 640, 64)     256         ['conv1d_17[0][0]']              
 ormalization)                                                                                    
                                                                                                  
 re_lu_18 (ReLU)                (None, 640, 64)      0           ['batch_normalization_17[0][0]'] 
                                                                                                  
 conv1d_18 (Conv1D)             (None, 640, 128)     8192        ['re_lu_18[0][0]']               
                                                                                                  
 batch_normalization_18 (BatchN  (None, 640, 128)    512         ['conv1d_18[0][0]']              
 ormalization)                                                                                    
                                                                                                  
 dropout_3 (Dropout)            (None, 640, 128)     0           ['batch_normalization_18[0][0]'] 
                                                                                                  
 add_3 (Add)                    (None, 640, 128)     0           ['add_2[0][0]',                  
                                                                  'dropout_3[0][0]']              
                                                                                                  
 re_lu_19 (ReLU)                (None, 640, 128)     0           ['add_3[0][0]']                  
                                                                                                  
 conv1d_19 (Conv1D)             (None, 640, 64)      24576       ['re_lu_19[0][0]']               
                                                                                                  
 batch_normalization_19 (BatchN  (None, 640, 64)     256         ['conv1d_19[0][0]']              
 ormalization)                                                                                    
                                                                                                  
 re_lu_20 (ReLU)                (None, 640, 64)      0           ['batch_normalization_19[0][0]'] 
                                                                                                  
 conv1d_20 (Conv1D)             (None, 640, 128)     8192        ['re_lu_20[0][0]']               
                                                                                                  
 batch_normalization_20 (BatchN  (None, 640, 128)    512         ['conv1d_20[0][0]']              
 ormalization)                                                                                    
                                                                                                  
 dropout_4 (Dropout)            (None, 640, 128)     0           ['batch_normalization_20[0][0]'] 
                                                                                                  
 add_4 (Add)                    (None, 640, 128)     0           ['add_3[0][0]',                  
                                                                  'dropout_4[0][0]']              
                                                                                                  
 re_lu_21 (ReLU)                (None, 640, 128)     0           ['add_4[0][0]']                  
                                                                                                  
 conv1d_21 (Conv1D)             (None, 640, 64)      24576       ['re_lu_21[0][0]']               
                                                                                                  
 batch_normalization_21 (BatchN  (None, 640, 64)     256         ['conv1d_21[0][0]']              
 ormalization)                                                                                    
                                                                                                  
 re_lu_22 (ReLU)                (None, 640, 64)      0           ['batch_normalization_21[0][0]'] 
                                                                                                  
 conv1d_22 (Conv1D)             (None, 640, 128)     8192        ['re_lu_22[0][0]']               
                                                                                                  
 batch_normalization_22 (BatchN  (None, 640, 128)    512         ['conv1d_22[0][0]']              
 ormalization)                                                                                    
                                                                                                  
 dropout_5 (Dropout)            (None, 640, 128)     0           ['batch_normalization_22[0][0]'] 
                                                                                                  
 add_5 (Add)                    (None, 640, 128)     0           ['add_4[0][0]',                  
                                                                  'dropout_5[0][0]']              
                                                                                                  
 re_lu_23 (ReLU)                (None, 640, 128)     0           ['add_5[0][0]']                  
                                                                                                  
 conv1d_23 (Conv1D)             (None, 640, 64)      24576       ['re_lu_23[0][0]']               
                                                                                                  
 batch_normalization_23 (BatchN  (None, 640, 64)     256         ['conv1d_23[0][0]']              
 ormalization)                                                                                    
                                                                                                  
 re_lu_24 (ReLU)                (None, 640, 64)      0           ['batch_normalization_23[0][0]'] 
                                                                                                  
 conv1d_24 (Conv1D)             (None, 640, 128)     8192        ['re_lu_24[0][0]']               
                                                                                                  
 batch_normalization_24 (BatchN  (None, 640, 128)    512         ['conv1d_24[0][0]']              
 ormalization)                                                                                    
                                                                                                  
 dropout_6 (Dropout)            (None, 640, 128)     0           ['batch_normalization_24[0][0]'] 
                                                                                                  
 add_6 (Add)                    (None, 640, 128)     0           ['add_5[0][0]',                  
                                                                  'dropout_6[0][0]']              
                                                                                                  
 re_lu_25 (ReLU)                (None, 640, 128)     0           ['add_6[0][0]']                  
                                                                                                  
 conv1d_25 (Conv1D)             (None, 640, 64)      24576       ['re_lu_25[0][0]']               
                                                                                                  
 batch_normalization_25 (BatchN  (None, 640, 64)     256         ['conv1d_25[0][0]']              
 ormalization)                                                                                    
                                                                                                  
 re_lu_26 (ReLU)                (None, 640, 64)      0           ['batch_normalization_25[0][0]'] 
                                                                                                  
 conv1d_26 (Conv1D)             (None, 640, 128)     8192        ['re_lu_26[0][0]']               
                                                                                                  
 batch_normalization_26 (BatchN  (None, 640, 128)    512         ['conv1d_26[0][0]']              
 ormalization)                                                                                    
                                                                                                  
 dropout_7 (Dropout)            (None, 640, 128)     0           ['batch_normalization_26[0][0]'] 
                                                                                                  
 add_7 (Add)                    (None, 640, 128)     0           ['add_6[0][0]',                  
                                                                  'dropout_7[0][0]']              
                                                                                                  
 re_lu_27 (ReLU)                (None, 640, 128)     0           ['add_7[0][0]']                  
                                                                                                  
 conv1d_27 (Conv1D)             (None, 640, 64)      24576       ['re_lu_27[0][0]']               
                                                                                                  
 batch_normalization_27 (BatchN  (None, 640, 64)     256         ['conv1d_27[0][0]']              
 ormalization)                                                                                    
                                                                                                  
 re_lu_28 (ReLU)                (None, 640, 64)      0           ['batch_normalization_27[0][0]'] 
                                                                                                  
 conv1d_28 (Conv1D)             (None, 640, 128)     8192        ['re_lu_28[0][0]']               
                                                                                                  
 batch_normalization_28 (BatchN  (None, 640, 128)    512         ['conv1d_28[0][0]']              
 ormalization)                                                                                    
                                                                                                  
 dropout_8 (Dropout)            (None, 640, 128)     0           ['batch_normalization_28[0][0]'] 
                                                                                                  
 add_8 (Add)                    (None, 640, 128)     0           ['add_7[0][0]',                  
                                                                  'dropout_8[0][0]']              
                                                                                                  
 re_lu_29 (ReLU)                (None, 640, 128)     0           ['add_8[0][0]']                  
                                                                                                  
 conv1d_29 (Conv1D)             (None, 640, 64)      24576       ['re_lu_29[0][0]']               
                                                                                                  
 batch_normalization_29 (BatchN  (None, 640, 64)     256         ['conv1d_29[0][0]']              
 ormalization)                                                                                    
                                                                                                  
 re_lu_30 (ReLU)                (None, 640, 64)      0           ['batch_normalization_29[0][0]'] 
                                                                                                  
 conv1d_30 (Conv1D)             (None, 640, 128)     8192        ['re_lu_30[0][0]']               
                                                                                                  
 batch_normalization_30 (BatchN  (None, 640, 128)    512         ['conv1d_30[0][0]']              
 ormalization)                                                                                    
                                                                                                  
 dropout_9 (Dropout)            (None, 640, 128)     0           ['batch_normalization_30[0][0]'] 
                                                                                                  
 add_9 (Add)                    (None, 640, 128)     0           ['add_8[0][0]',                  
                                                                  'dropout_9[0][0]']              
                                                                                                  
 re_lu_31 (ReLU)                (None, 640, 128)     0           ['add_9[0][0]']                  
                                                                                                  
 conv1d_31 (Conv1D)             (None, 640, 64)      24576       ['re_lu_31[0][0]']               
                                                                                                  
 batch_normalization_31 (BatchN  (None, 640, 64)     256         ['conv1d_31[0][0]']              
 ormalization)                                                                                    
                                                                                                  
 re_lu_32 (ReLU)                (None, 640, 64)      0           ['batch_normalization_31[0][0]'] 
                                                                                                  
 conv1d_32 (Conv1D)             (None, 640, 128)     8192        ['re_lu_32[0][0]']               
                                                                                                  
 batch_normalization_32 (BatchN  (None, 640, 128)    512         ['conv1d_32[0][0]']              
 ormalization)                                                                                    
                                                                                                  
 dropout_10 (Dropout)           (None, 640, 128)     0           ['batch_normalization_32[0][0]'] 
                                                                                                  
 add_10 (Add)                   (None, 640, 128)     0           ['add_9[0][0]',                  
                                                                  'dropout_10[0][0]']             
                                                                                                  
 re_lu_33 (ReLU)                (None, 640, 128)     0           ['add_10[0][0]']                 
                                                                                                  
 conv1d_33 (Conv1D)             (None, 640, 80)      51200       ['re_lu_33[0][0]']               
                                                                                                  
 batch_normalization_33 (BatchN  (None, 640, 80)     320         ['conv1d_33[0][0]']              
 ormalization)                                                                                    
                                                                                                  
 re_lu_34 (ReLU)                (None, 640, 80)      0           ['batch_normalization_33[0][0]'] 
                                                                                                  
 one_to_two (OneToTwo)          (None, 640, 640, 80  0           ['re_lu_34[0][0]']               
                                )                                                                 
                                                                                                  
…
