…
Layer (type)                    Output Shape         Param #     Connected to                     
==================================================================================================
sequence (InputLayer)           [(None, 1310720, 4)] 0                                            
__________________________________________________________________________________________________
stochastic_reverse_complement ( ((None, 1310720, 4), 0           sequence[0][0]                   
__________________________________________________________________________________________________
stochastic_shift (StochasticShi (None, 1310720, 4)   0           stochastic_reverse_complement[0][
__________________________________________________________________________________________________
re_lu (ReLU)                    (None, 1310720, 4)   0           stochastic_shift[0][0]           
__________________________________________________________________________________________________
conv1d (Conv1D)                 (None, 1310720, 128) 7680        re_lu[0][0]                      
__________________________________________________________________________________________________
batch_normalization (BatchNorma (None, 1310720, 128) 512         conv1d[0][0]                     
__________________________________________________________________________________________________
max_pooling1d (MaxPooling1D)    (None, 655360, 128)  0           batch_normalization[0][0]        
__________________________________________________________________________________________________
re_lu_1 (ReLU)                  (None, 655360, 128)  0           max_pooling1d[0][0]              
__________________________________________________________________________________________________
conv1d_1 (Conv1D)               (None, 655360, 128)  81920       re_lu_1[0][0]                    
__________________________________________________________________________________________________
batch_normalization_1 (BatchNor (None, 655360, 128)  512         conv1d_1[0][0]                   
__________________________________________________________________________________________________
max_pooling1d_1 (MaxPooling1D)  (None, 327680, 128)  0           batch_normalization_1[0][0]      
__________________________________________________________________________________________________
re_lu_2 (ReLU)                  (None, 327680, 128)  0           max_pooling1d_1[0][0]            
__________________________________________________________________________________________________
conv1d_2 (Conv1D)               (None, 327680, 128)  81920       re_lu_2[0][0]                    
__________________________________________________________________________________________________
batch_normalization_2 (BatchNor (None, 327680, 128)  512         conv1d_2[0][0]                   
__________________________________________________________________________________________________
max_pooling1d_2 (MaxPooling1D)  (None, 163840, 128)  0           batch_normalization_2[0][0]      
__________________________________________________________________________________________________
re_lu_3 (ReLU)                  (None, 163840, 128)  0           max_pooling1d_2[0][0]            
__________________________________________________________________________________________________
conv1d_3 (Conv1D)               (None, 163840, 128)  81920       re_lu_3[0][0]                    
__________________________________________________________________________________________________
batch_normalization_3 (BatchNor (None, 163840, 128)  512         conv1d_3[0][0]                   
__________________________________________________________________________________________________
max_pooling1d_3 (MaxPooling1D)  (None, 81920, 128)   0           batch_normalization_3[0][0]      
__________________________________________________________________________________________________
re_lu_4 (ReLU)                  (None, 81920, 128)   0           max_pooling1d_3[0][0]            
__________________________________________________________________________________________________
conv1d_4 (Conv1D)               (None, 81920, 128)   81920       re_lu_4[0][0]                    
__________________________________________________________________________________________________
batch_normalization_4 (BatchNor (None, 81920, 128)   512         conv1d_4[0][0]                   
__________________________________________________________________________________________________
max_pooling1d_4 (MaxPooling1D)  (None, 40960, 128)   0           batch_normalization_4[0][0]      
__________________________________________________________________________________________________
re_lu_5 (ReLU)                  (None, 40960, 128)   0           max_pooling1d_4[0][0]            
__________________________________________________________________________________________________
conv1d_5 (Conv1D)               (None, 40960, 128)   81920       re_lu_5[0][0]                    
__________________________________________________________________________________________________
batch_normalization_5 (BatchNor (None, 40960, 128)   512         conv1d_5[0][0]                   
__________________________________________________________________________________________________
max_pooling1d_5 (MaxPooling1D)  (None, 20480, 128)   0           batch_normalization_5[0][0]      
__________________________________________________________________________________________________
re_lu_6 (ReLU)                  (None, 20480, 128)   0           max_pooling1d_5[0][0]            
__________________________________________________________________________________________________
conv1d_6 (Conv1D)               (None, 20480, 128)   81920       re_lu_6[0][0]                    
__________________________________________________________________________________________________
batch_normalization_6 (BatchNor (None, 20480, 128)   512         conv1d_6[0][0]                   
__________________________________________________________________________________________________
max_pooling1d_6 (MaxPooling1D)  (None, 10240, 128)   0           batch_normalization_6[0][0]      
__________________________________________________________________________________________________
re_lu_7 (ReLU)                  (None, 10240, 128)   0           max_pooling1d_6[0][0]            
__________________________________________________________________________________________________
conv1d_7 (Conv1D)               (None, 10240, 128)   81920       re_lu_7[0][0]                    
__________________________________________________________________________________________________
batch_normalization_7 (BatchNor (None, 10240, 128)   512         conv1d_7[0][0]                   
__________________________________________________________________________________________________
max_pooling1d_7 (MaxPooling1D)  (None, 5120, 128)    0           batch_normalization_7[0][0]      
__________________________________________________________________________________________________
re_lu_8 (ReLU)                  (None, 5120, 128)    0           max_pooling1d_7[0][0]            
__________________________________________________________________________________________________
conv1d_8 (Conv1D)               (None, 5120, 128)    81920       re_lu_8[0][0]                    
__________________________________________________________________________________________________
batch_normalization_8 (BatchNor (None, 5120, 128)    512         conv1d_8[0][0]                   
__________________________________________________________________________________________________
max_pooling1d_8 (MaxPooling1D)  (None, 2560, 128)    0           batch_normalization_8[0][0]      
__________________________________________________________________________________________________
re_lu_9 (ReLU)                  (None, 2560, 128)    0           max_pooling1d_8[0][0]            
__________________________________________________________________________________________________
conv1d_9 (Conv1D)               (None, 2560, 128)    81920       re_lu_9[0][0]                    
__________________________________________________________________________________________________
batch_normalization_9 (BatchNor (None, 2560, 128)    512         conv1d_9[0][0]                   
__________________________________________________________________________________________________
max_pooling1d_9 (MaxPooling1D)  (None, 1280, 128)    0           batch_normalization_9[0][0]      
__________________________________________________________________________________________________
re_lu_10 (ReLU)                 (None, 1280, 128)    0           max_pooling1d_9[0][0]            
__________________________________________________________________________________________________
conv1d_10 (Conv1D)              (None, 1280, 128)    81920       re_lu_10[0][0]                   
__________________________________________________________________________________________________
batch_normalization_10 (BatchNo (None, 1280, 128)    512         conv1d_10[0][0]                  
__________________________________________________________________________________________________
max_pooling1d_10 (MaxPooling1D) (None, 640, 128)     0           batch_normalization_10[0][0]     
__________________________________________________________________________________________________
re_lu_11 (ReLU)                 (None, 640, 128)     0           max_pooling1d_10[0][0]           
__________________________________________________________________________________________________
conv1d_11 (Conv1D)              (None, 640, 64)      24576       re_lu_11[0][0]                   
__________________________________________________________________________________________________
batch_normalization_11 (BatchNo (None, 640, 64)      256         conv1d_11[0][0]                  
__________________________________________________________________________________________________
re_lu_12 (ReLU)                 (None, 640, 64)      0           batch_normalization_11[0][0]     
__________________________________________________________________________________________________
conv1d_12 (Conv1D)              (None, 640, 128)     8192        re_lu_12[0][0]                   
__________________________________________________________________________________________________
batch_normalization_12 (BatchNo (None, 640, 128)     512         conv1d_12[0][0]                  
__________________________________________________________________________________________________
dropout (Dropout)               (None, 640, 128)     0           batch_normalization_12[0][0]     
__________________________________________________________________________________________________
add (Add)                       (None, 640, 128)     0           max_pooling1d_10[0][0]           
                                                                 dropout[0][0]                    
__________________________________________________________________________________________________
re_lu_13 (ReLU)                 (None, 640, 128)     0           add[0][0]                        
__________________________________________________________________________________________________
conv1d_13 (Conv1D)              (None, 640, 64)      24576       re_lu_13[0][0]                   
__________________________________________________________________________________________________
batch_normalization_13 (BatchNo (None, 640, 64)      256         conv1d_13[0][0]                  
__________________________________________________________________________________________________
re_lu_14 (ReLU)                 (None, 640, 64)      0           batch_normalization_13[0][0]     
__________________________________________________________________________________________________
conv1d_14 (Conv1D)              (None, 640, 128)     8192        re_lu_14[0][0]                   
__________________________________________________________________________________________________
batch_normalization_14 (BatchNo (None, 640, 128)     512         conv1d_14[0][0]                  
__________________________________________________________________________________________________
dropout_1 (Dropout)             (None, 640, 128)     0           batch_normalization_14[0][0]     
__________________________________________________________________________________________________
add_1 (Add)                     (None, 640, 128)     0           add[0][0]                        
                                                                 dropout_1[0][0]                  
__________________________________________________________________________________________________
re_lu_15 (ReLU)                 (None, 640, 128)     0           add_1[0][0]                      
__________________________________________________________________________________________________
conv1d_15 (Conv1D)              (None, 640, 64)      24576       re_lu_15[0][0]                   
__________________________________________________________________________________________________
batch_normalization_15 (BatchNo (None, 640, 64)      256         conv1d_15[0][0]                  
__________________________________________________________________________________________________
re_lu_16 (ReLU)                 (None, 640, 64)      0           batch_normalization_15[0][0]     
__________________________________________________________________________________________________
conv1d_16 (Conv1D)              (None, 640, 128)     8192        re_lu_16[0][0]                   
__________________________________________________________________________________________________
batch_normalization_16 (BatchNo (None, 640, 128)     512         conv1d_16[0][0]                  
__________________________________________________________________________________________________
dropout_2 (Dropout)             (None, 640, 128)     0           batch_normalization_16[0][0]     
__________________________________________________________________________________________________
add_2 (Add)                     (None, 640, 128)     0           add_1[0][0]                      
                                                                 dropout_2[0][0]                  
__________________________________________________________________________________________________
re_lu_17 (ReLU)                 (None, 640, 128)     0           add_2[0][0]                      
__________________________________________________________________________________________________
conv1d_17 (Conv1D)              (None, 640, 64)      24576       re_lu_17[0][0]                   
__________________________________________________________________________________________________
batch_normalization_17 (BatchNo (None, 640, 64)      256         conv1d_17[0][0]                  
__________________________________________________________________________________________________
re_lu_18 (ReLU)                 (None, 640, 64)      0           batch_normalization_17[0][0]     
__________________________________________________________________________________________________
conv1d_18 (Conv1D)              (None, 640, 128)     8192        re_lu_18[0][0]                   
__________________________________________________________________________________________________
batch_normalization_18 (BatchNo (None, 640, 128)     512         conv1d_18[0][0]                  
__________________________________________________________________________________________________
dropout_3 (Dropout)             (None, 640, 128)     0           batch_normalization_18[0][0]     
__________________________________________________________________________________________________
add_3 (Add)                     (None, 640, 128)     0           add_2[0][0]                      
                                                                 dropout_3[0][0]                  
__________________________________________________________________________________________________
re_lu_19 (ReLU)                 (None, 640, 128)     0           add_3[0][0]                      
__________________________________________________________________________________________________
conv1d_19 (Conv1D)              (None, 640, 64)      24576       re_lu_19[0][0]                   
__________________________________________________________________________________________________
batch_normalization_19 (BatchNo (None, 640, 64)      256         conv1d_19[0][0]                  
__________________________________________________________________________________________________
re_lu_20 (ReLU)                 (None, 640, 64)      0           batch_normalization_19[0][0]     
__________________________________________________________________________________________________
conv1d_20 (Conv1D)              (None, 640, 128)     8192        re_lu_20[0][0]                   
__________________________________________________________________________________________________
batch_normalization_20 (BatchNo (None, 640, 128)     512         conv1d_20[0][0]                  
__________________________________________________________________________________________________
dropout_4 (Dropout)             (None, 640, 128)     0           batch_normalization_20[0][0]     
__________________________________________________________________________________________________
add_4 (Add)                     (None, 640, 128)     0           add_3[0][0]                      
                                                                 dropout_4[0][0]                  
__________________________________________________________________________________________________
re_lu_21 (ReLU)                 (None, 640, 128)     0           add_4[0][0]                      
__________________________________________________________________________________________________
conv1d_21 (Conv1D)              (None, 640, 64)      24576       re_lu_21[0][0]                   
__________________________________________________________________________________________________
batch_normalization_21 (BatchNo (None, 640, 64)      256         conv1d_21[0][0]                  
__________________________________________________________________________________________________
re_lu_22 (ReLU)                 (None, 640, 64)      0           batch_normalization_21[0][0]     
__________________________________________________________________________________________________
conv1d_22 (Conv1D)              (None, 640, 128)     8192        re_lu_22[0][0]                   
__________________________________________________________________________________________________
batch_normalization_22 (BatchNo (None, 640, 128)     512         conv1d_22[0][0]                  
__________________________________________________________________________________________________
dropout_5 (Dropout)             (None, 640, 128)     0           batch_normalization_22[0][0]     
__________________________________________________________________________________________________
add_5 (Add)                     (None, 640, 128)     0           add_4[0][0]                      
                                                                 dropout_5[0][0]                  
__________________________________________________________________________________________________
re_lu_23 (ReLU)                 (None, 640, 128)     0           add_5[0][0]                      
__________________________________________________________________________________________________
conv1d_23 (Conv1D)              (None, 640, 64)      24576       re_lu_23[0][0]                   
__________________________________________________________________________________________________
batch_normalization_23 (BatchNo (None, 640, 64)      256         conv1d_23[0][0]                  
__________________________________________________________________________________________________
re_lu_24 (ReLU)                 (None, 640, 64)      0           batch_normalization_23[0][0]     
__________________________________________________________________________________________________
conv1d_24 (Conv1D)              (None, 640, 128)     8192        re_lu_24[0][0]                   
__________________________________________________________________________________________________
batch_normalization_24 (BatchNo (None, 640, 128)     512         conv1d_24[0][0]                  
__________________________________________________________________________________________________
dropout_6 (Dropout)             (None, 640, 128)     0           batch_normalization_24[0][0]     
__________________________________________________________________________________________________
add_6 (Add)                     (None, 640, 128)     0           add_5[0][0]                      
                                                                 dropout_6[0][0]                  
__________________________________________________________________________________________________
re_lu_25 (ReLU)                 (None, 640, 128)     0           add_6[0][0]                      
__________________________________________________________________________________________________
conv1d_25 (Conv1D)              (None, 640, 64)      24576       re_lu_25[0][0]                   
__________________________________________________________________________________________________
batch_normalization_25 (BatchNo (None, 640, 64)      256         conv1d_25[0][0]                  
__________________________________________________________________________________________________
re_lu_26 (ReLU)                 (None, 640, 64)      0           batch_normalization_25[0][0]     
__________________________________________________________________________________________________
conv1d_26 (Conv1D)              (None, 640, 128)     8192        re_lu_26[0][0]                   
__________________________________________________________________________________________________
batch_normalization_26 (BatchNo (None, 640, 128)     512         conv1d_26[0][0]                  
__________________________________________________________________________________________________
dropout_7 (Dropout)             (None, 640, 128)     0           batch_normalization_26[0][0]     
__________________________________________________________________________________________________
add_7 (Add)                     (None, 640, 128)     0           add_6[0][0]                      
                                                                 dropout_7[0][0]                  
__________________________________________________________________________________________________
re_lu_27 (ReLU)                 (None, 640, 128)     0           add_7[0][0]                      
__________________________________________________________________________________________________
conv1d_27 (Conv1D)              (None, 640, 64)      24576       re_lu_27[0][0]                   
__________________________________________________________________________________________________
batch_normalization_27 (BatchNo (None, 640, 64)      256         conv1d_27[0][0]                  
__________________________________________________________________________________________________
re_lu_28 (ReLU)                 (None, 640, 64)      0           batch_normalization_27[0][0]     
__________________________________________________________________________________________________
conv1d_28 (Conv1D)              (None, 640, 128)     8192        re_lu_28[0][0]                   
__________________________________________________________________________________________________
batch_normalization_28 (BatchNo (None, 640, 128)     512         conv1d_28[0][0]                  
__________________________________________________________________________________________________
dropout_8 (Dropout)             (None, 640, 128)     0           batch_normalization_28[0][0]     
__________________________________________________________________________________________________
add_8 (Add)                     (None, 640, 128)     0           add_7[0][0]                      
                                                                 dropout_8[0][0]                  
__________________________________________________________________________________________________
re_lu_29 (ReLU)                 (None, 640, 128)     0           add_8[0][0]                      
__________________________________________________________________________________________________
conv1d_29 (Conv1D)              (None, 640, 64)      24576       re_lu_29[0][0]                   
__________________________________________________________________________________________________
batch_normalization_29 (BatchNo (None, 640, 64)      256         conv1d_29[0][0]                  
__________________________________________________________________________________________________
re_lu_30 (ReLU)                 (None, 640, 64)      0           batch_normalization_29[0][0]     
__________________________________________________________________________________________________
conv1d_30 (Conv1D)              (None, 640, 128)     8192        re_lu_30[0][0]                   
__________________________________________________________________________________________________
batch_normalization_30 (BatchNo (None, 640, 128)     512         conv1d_30[0][0]                  
__________________________________________________________________________________________________
dropout_9 (Dropout)             (None, 640, 128)     0           batch_normalization_30[0][0]     
__________________________________________________________________________________________________
add_9 (Add)                     (None, 640, 128)     0           add_8[0][0]                      
                                                                 dropout_9[0][0]                  
__________________________________________________________________________________________________
re_lu_31 (ReLU)                 (None, 640, 128)     0           add_9[0][0]                      
__________________________________________________________________________________________________
conv1d_31 (Conv1D)              (None, 640, 64)      24576       re_lu_31[0][0]                   
__________________________________________________________________________________________________
batch_normalization_31 (BatchNo (None, 640, 64)      256         conv1d_31[0][0]                  
__________________________________________________________________________________________________
re_lu_32 (ReLU)                 (None, 640, 64)      0           batch_normalization_31[0][0]     
__________________________________________________________________________________________________
conv1d_32 (Conv1D)              (None, 640, 128)     8192        re_lu_32[0][0]                   
__________________________________________________________________________________________________
batch_normalization_32 (BatchNo (None, 640, 128)     512         conv1d_32[0][0]                  
__________________________________________________________________________________________________
dropout_10 (Dropout)            (None, 640, 128)     0           batch_normalization_32[0][0]     
__________________________________________________________________________________________________
add_10 (Add)                    (None, 640, 128)     0           add_9[0][0]                      
                                                                 dropout_10[0][0]                 
__________________________________________________________________________________________________
re_lu_33 (ReLU)                 (None, 640, 128)     0           add_10[0][0]                     
__________________________________________________________________________________________________
conv1d_33 (Conv1D)              (None, 640, 80)      51200       re_lu_33[0][0]                   
__________________________________________________________________________________________________
batch_normalization_33 (BatchNo (None, 640, 80)      320         conv1d_33[0][0]                  
__________________________________________________________________________________________________
re_lu_34 (ReLU)                 (None, 640, 80)      0           batch_normalization_33[0][0]     
__________________________________________________________________________________________________
one_to_two (OneToTwo)           (None, 640, 640, 80) 0           re_lu_34[0][0]                   
__________________________________________________________________________________________________
re_lu_35 (ReLU)                 (None, 640, 640, 80) 0           one_to_two[0][0]                 
__________________________________________________________________________________________________
conv2d (Conv2D)                 (None, 640, 640, 80) 57600       re_lu_35[0][0]                   
__________________________________________________________________________________________________
batch_normalization_34 (BatchNo (None, 640, 640, 80) 320         conv2d[0][0]                     
__________________________________________________________________________________________________
symmetrize2d (Symmetrize2D)     (None, 640, 640, 80) 0           batch_normalization_34[0][0]     
__________________________________________________________________________________________________
re_lu_36 (ReLU)                 (None, 640, 640, 80) 0           symmetrize2d[0][0]               
__________________________________________________________________________________________________
conv2d_1 (Conv2D)               (None, 640, 640, 40) 28800       re_lu_36[0][0]                   
__________________________________________________________________________________________________
batch_normalization_35 (BatchNo (None, 640, 640, 40) 160         conv2d_1[0][0]                   
__________________________________________________________________________________________________
re_lu_37 (ReLU)                 (None, 640, 640, 40) 0           batch_normalization_35[0][0]     
__________________________________________________________________________________________________
conv2d_2 (Conv2D)               (None, 640, 640, 80) 3200        re_lu_37[0][0]                   
__________________________________________________________________________________________________
batch_normalization_36 (BatchNo (None, 640, 640, 80) 320         conv2d_2[0][0]                   
__________________________________________________________________________________________________
dropout_11 (Dropout)            (None, 640, 640, 80) 0           batch_normalization_36[0][0]     
__________________________________________________________________________________________________
add_11 (Add)                    (None, 640, 640, 80) 0           symmetrize2d[0][0]               
                                                                 dropout_11[0][0]                 
__________________________________________________________________________________________________
symmetrize2d_1 (Symmetrize2D)   (None, 640, 640, 80) 0           add_11[0][0]                     
__________________________________________________________________________________________________
re_lu_38 (ReLU)                 (None, 640, 640, 80) 0           symmetrize2d_1[0][0]             
__________________________________________________________________________________________________
conv2d_3 (Conv2D)               (None, 640, 640, 40) 28800       re_lu_38[0][0]                   
__________________________________________________________________________________________________
batch_normalization_37 (BatchNo (None, 640, 640, 40) 160         conv2d_3[0][0]                   
__________________________________________________________________________________________________
re_lu_39 (ReLU)                 (None, 640, 640, 40) 0           batch_normalization_37[0][0]     
__________________________________________________________________________________________________
conv2d_4 (Conv2D)               (None, 640, 640, 80) 3200        re_lu_39[0][0]                   
__________________________________________________________________________________________________
batch_normalization_38 (BatchNo (None, 640, 640, 80) 320         conv2d_4[0][0]                   
__________________________________________________________________________________________________
dropout_12 (Dropout)            (None, 640, 640, 80) 0           batch_normalization_38[0][0]     
__________________________________________________________________________________________________
add_12 (Add)                    (None, 640, 640, 80) 0           symmetrize2d_1[0][0]             
                                                                 dropout_12[0][0]                 
__________________________________________________________________________________________________
symmetrize2d_2 (Symmetrize2D)   (None, 640, 640, 80) 0           add_12[0][0]                     
__________________________________________________________________________________________________
re_lu_40 (ReLU)                 (None, 640, 640, 80) 0           symmetrize2d_2[0][0]             
__________________________________________________________________________________________________
conv2d_5 (Conv2D)               (None, 640, 640, 40) 28800       re_lu_40[0][0]                   
__________________________________________________________________________________________________
batch_normalization_39 (BatchNo (None, 640, 640, 40) 160         conv2d_5[0][0]                   
__________________________________________________________________________________________________
re_lu_41 (ReLU)                 (None, 640, 640, 40) 0           batch_normalization_39[0][0]     
__________________________________________________________________________________________________
conv2d_6 (Conv2D)               (None, 640, 640, 80) 3200        re_lu_41[0][0]                   
__________________________________________________________________________________________________
batch_normalization_40 (BatchNo (None, 640, 640, 80) 320         conv2d_6[0][0]                   
__________________________________________________________________________________________________
dropout_13 (Dropout)            (None, 640, 640, 80) 0           batch_normalization_40[0][0]     
__________________________________________________________________________________________________
add_13 (Add)                    (None, 640, 640, 80) 0           symmetrize2d_2[0][0]             
                                                                 dropout_13[0][0]                 
__________________________________________________________________________________________________
symmetrize2d_3 (Symmetrize2D)   (None, 640, 640, 80) 0           add_13[0][0]                     
__________________________________________________________________________________________________
re_lu_42 (ReLU)                 (None, 640, 640, 80) 0           symmetrize2d_3[0][0]             
__________________________________________________________________________________________________
conv2d_7 (Conv2D)               (None, 640, 640, 40) 28800       re_lu_42[0][0]                   
__________________________________________________________________________________________________
batch_normalization_41 (BatchNo (None, 640, 640, 40) 160         conv2d_7[0][0]                   
__________________________________________________________________________________________________
re_lu_43 (ReLU)                 (None, 640, 640, 40) 0           batch_normalization_41[0][0]     
__________________________________________________________________________________________________
conv2d_8 (Conv2D)               (None, 640, 640, 80) 3200        re_lu_43[0][0]                   
__________________________________________________________________________________________________
batch_normalization_42 (BatchNo (None, 640, 640, 80) 320         conv2d_8[0][0]                   
__________________________________________________________________________________________________
dropout_14 (Dropout)            (None, 640, 640, 80) 0           batch_normalization_42[0][0]     
__________________________________________________________________________________________________
add_14 (Add)                    (None, 640, 640, 80) 0           symmetrize2d_3[0][0]             
                                                                 dropout_14[0][0]                 
__________________________________________________________________________________________________
symmetrize2d_4 (Symmetrize2D)   (None, 640, 640, 80) 0           add_14[0][0]                     
__________________________________________________________________________________________________
re_lu_44 (ReLU)                 (None, 640, 640, 80) 0           symmetrize2d_4[0][0]             
__________________________________________________________________________________________________
conv2d_9 (Conv2D)               (None, 640, 640, 40) 28800       re_lu_44[0][0]                   
__________________________________________________________________________________________________
batch_normalization_43 (BatchNo (None, 640, 640, 40) 160         conv2d_9[0][0]                   
__________________________________________________________________________________________________
re_lu_45 (ReLU)                 (None, 640, 640, 40) 0           batch_normalization_43[0][0]     
__________________________________________________________________________________________________
conv2d_10 (Conv2D)              (None, 640, 640, 80) 3200        re_lu_45[0][0]                   
__________________________________________________________________________________________________
batch_normalization_44 (BatchNo (None, 640, 640, 80) 320         conv2d_10[0][0]                  
__________________________________________________________________________________________________
dropout_15 (Dropout)            (None, 640, 640, 80) 0           batch_normalization_44[0][0]     
__________________________________________________________________________________________________
add_15 (Add)                    (None, 640, 640, 80) 0           symmetrize2d_4[0][0]             
                                                                 dropout_15[0][0]                 
__________________________________________________________________________________________________
symmetrize2d_5 (Symmetrize2D)   (None, 640, 640, 80) 0           add_15[0][0]                     
__________________________________________________________________________________________________
re_lu_46 (ReLU)                 (None, 640, 640, 80) 0           symmetrize2d_5[0][0]             
__________________________________________________________________________________________________
conv2d_11 (Conv2D)              (None, 640, 640, 40) 28800       re_lu_46[0][0]                   
__________________________________________________________________________________________________
batch_normalization_45 (BatchNo (None, 640, 640, 40) 160         conv2d_11[0][0]                  
__________________________________________________________________________________________________
re_lu_47 (ReLU)                 (None, 640, 640, 40) 0           batch_normalization_45[0][0]     
__________________________________________________________________________________________________
conv2d_12 (Conv2D)              (None, 640, 640, 80) 3200        re_lu_47[0][0]                   
__________________________________________________________________________________________________
batch_normalization_46 (BatchNo (None, 640, 640, 80) 320         conv2d_12[0][0]                  
__________________________________________________________________________________________________
dropout_16 (Dropout)            (None, 640, 640, 80) 0           batch_normalization_46[0][0]     
__________________________________________________________________________________________________
add_16 (Add)                    (None, 640, 640, 80) 0           symmetrize2d_5[0][0]             
                                                                 dropout_16[0][0]                 
__________________________________________________________________________________________________
symmetrize2d_6 (Symmetrize2D)   (None, 640, 640, 80) 0           add_16[0][0]                     
__________________________________________________________________________________________________
squeeze_excite (SqueezeExcite)  (None, 640, 640, 80) 2010        symmetrize2d_6[0][0]             
__________________________________________________________________________________________________
cropping2d (Cropping2D)         (None, 512, 512, 80) 0           squeeze_excite[0][0]             
__________________________________________________________________________________________________
upper_tri (UpperTri)            (None, 130305, 80)   0           cropping2d[0][0]                 
__________________________________________________________________________________________________
re_lu_48 (ReLU)                 (None, 130305, 80)   0           upper_tri[0][0]                  
__________________________________________________________________________________________________
dense (Dense)                   (None, 130305, 5)    405         re_lu_48[0][0]                   
__________________________________________________________________________________________________
switch_reverse_triu (SwitchReve (None, 130305, 5)    0           dense[0][0]                      
                                                                 stochastic_reverse_complement[0][
==================================================================================================
Total params: 1,508,143
Trainable params: 1,499,183
Non-trainable params: 8,960
__________________________________________________________________________________________________
…
